…
localhost:8080/"},"id":"t7sEg6lVBt8N","executionInfo":{"status":"ok","timestamp":1637754787755,"user_tz":-60,"elapsed":12135,"user":{"displayName":"Frederik Niesner","photoUrl":"https://lh3.googleusercontent.com/a-/AOh14GjS-rpAvcehenzUFe5XNA7F_HjIVdKRnRIwLRDH=s64","userId":"16681650301170974875"}},"outputId":"6390235a-407d-4f3f-9500-d329fccaf85f"},"source":["import torch\n","\n","device = torch.device(\"cuda\")\n","model.to(device)"],"execution_count":null,"outputs":[{"output_type":"execute_result","data":{"text/plain":["MPNetModel(\n","  (embeddings): MPNetEmbeddings(\n","    (word_embeddings): Embedding(30527, 768, padding_idx=1)\n","    (position_embeddings): Embedding(514, 768, padding_idx=1)\n","    (LayerNorm): LayerNorm((768,), eps=1e-05, elementwise_affine=True)\n","    (dropout): Dropout(p=0.1, inplace=False)\n","  )\n","  (encoder): MPNetEncoder(\n","    (layer): ModuleList(\n","      (0): MPNetLayer(\n","        (attention): MPNetAttention(\n","          (attn): MPNetSelfAttention(\n","            (q): Linear(in_features=768, out_features=768, bias=True)\n","            (k): Linear(in_features=768, out_features=768, bias=True)\n","            (v): Linear(in_features=768, out_features=768, bias=True)\n","            (o): Linear(in_features=768, out_features=768, bias=True)\n","            (dropout): Dropout(p=0.1, inplace=False)\n","          )\n","          (LayerNorm): LayerNorm((768,), eps=1e-05, elementwise_affine=True)\n","          (dropout): Dropout(p=0.1, inplace=False)\n","        )\n","        (intermediate): MPNetIntermediate(\n","          (dense): Linear(in_features=768, out_features=3072, bias=True)\n","        )\n","        (output): MPNetOutput(\n","          (dense): Linear(in_features=3072, out_features=768, bias=True)\n","          (LayerNorm): LayerNorm((768,), eps=1e-05, elementwise_affine=True)\n","          (dropout): Dropout(p=0.1, inplace=False)\n","        )\n","      )\n","      (1): MPNetLayer(\n","        (attention): MPNetAttention(\n","          (attn): MPNetSelfAttention(\n","            (q): Linear(in_features=768, out_features=768, bias=True)\n","            (k): Linear(in_features=768, out_features=768, bias=True)\n","            (v): Linear(in_features=768, out_features=768, bias=True)\n","            (o): Linear(in_features=768, out_features=768, bias=True)\n","            (dropout): Dropout(p=0.1, inplace=False)\n","          )\n","          (LayerNorm): LayerNorm((768,), eps=1e-05, elementwise_affine=True)\n","          (dropout): Dropout(p=0.1, inplace=False)\n","        )\n","        (intermediate): MPNetIntermediate(\n","          (dense): Linear(in_features=768, out_features=3072, bias=True)\n","        )\n","        (output): MPNetOutput(\n","          (dense): Linear(in_features=3072, out_features=768, bias=True)\n","          (LayerNorm): LayerNorm((768,), eps=1e-05, elementwise_affine=True)\n","          (dropout): Dropout(p=0.1, inplace=False)\n","        )\n","      )\n","      (2): MPNetLayer(\n","        (attention): MPNetAttention(\n","          (attn): MPNetSelfAttention(\n","            (q): Linear(in_features=768, out_features=768, bias=True)\n","            (k): Linear(in_features=768, out_features=768, bias=True)\n","            (v): Linear(in_features=768, out_features=768, bias=True)\n","            (o): Linear(in_features=768, out_features=768, bias=True)\n","            (dropout): Dropout(p=0.1, inplace=False)\n","          )\n","          (LayerNorm): LayerNorm((768,), eps=1e-05, elementwise_affine=True)\n","          (dropout): Dropout(p=0.1, inplace=False)\n","        )\n","        (intermediate): MPNetIntermediate(\n","          (dense): Linear(in_features=768, out_features=3072, bias=True)\n","        )\n","        (output): MPNetOutput(\n","          (dense): Linear(in_features=3072, out_features=768, bias=True)\n","          (LayerNorm): LayerNorm((768,), eps=1e-05, elementwise_affine=True)\n","          (dropout): Dropout(p=0.1, inplace=False)\n","        )\n","      )\n","      (3): MPNetLayer(\n","        (attention): MPNetAttention(\n","          (attn): MPNetSelfAttention(\n","            (q): Linear(in_features=768, out_features=768, bias=True)\n","            (k): Linear(in_features=768, out_features=768, bias=True)\n","            (v): Linear(in_features=768, out_features=768, bias=True)\n","            (o): Linear(in_features=768, out_features=768, bias=True)\n","            (dropout): Dropout(p=0.1, inplace=False)\n","          )\n","          (LayerNorm): LayerNorm((768,), eps=1e-05, elementwise_affine=True)\n","          (dropout): Dropout(p=0.1, inplace=False)\n","        )\n","        (intermediate): MPNetIntermediate(\n","          (dense): Linear(in_features=768, out_features=3072, bias=True)\n","        )\n","        (output): MPNetOutput(\n","          (dense): Linear(in_features=3072, out_features=768, bias=True)\n","          (LayerNorm): LayerNorm((768,), eps=1e-05, elementwise_affine=True)\n","          (dropout): Dropout(p=0.1, inplace=False)\n","        )\n","      )\n","      (4): MPNetLayer(\n","        (attention): MPNetAttention(\n","          (attn): MPNetSelfAttention(\n","            (q): Linear(in_features=768, out_features=768, bias=True)\n","            (k): Linear(in_features=768, out_features=768, bias=True)\n","            (v): Linear(in_features=768, out_features=768, bias=True)\n","            (o): Linear(in_features=768, out_features=768, bias=True)\n","            (dropout): Dropout(p=0.1, inplace=False)\n","          )\n","          (LayerNorm): LayerNorm((768,), eps=1e-05, elementwise_affine=True)\n","          (dropout): Dropout(p=0.1, inplace=False)\n","        )\n","        (intermediate): MPNetIntermediate(\n","          (dense): Linear(in_features=768, out_features=3072, bias=True)\n","        )\n","        (output): MPNetOutput(\n","          (dense): Linear(in_features=3072, out_features=768, bias=True)\n","          (LayerNorm): LayerNorm((768,), eps=1e-05, elementwise_affine=True)\n","          (dropout): Dropout(p=0.1, inplace=False)\n","        )\n","      )\n","      (5): MPNetLayer(\n","        (attention): MPNetAttention(\n","          (attn): MPNetSelfAttention(\n","            (q): Linear(in_features=768, out_features=768, bias=True)\n","            (k): Linear(in_features=768, out_features=768, bias=True)\n","            (v): Linear(in_features=768, out_features=768, bias=True)\n","            (o): Linear(in_features=768, out_features=768, bias=True)\n","            (dropout): Dropout(p=0.1, inplace=False)\n","          )\n","          (LayerNorm): LayerNorm((768,), eps=1e-05, elementwise_affine=True)\n","          (dropout): Dropout(p=0.1, inplace=False)\n","        )\n","        (intermediate): MPNetIntermediate(\n","          (dense): Linear(in_features=768, out_features=3072, bias=True)\n","        )\n","        (output): MPNetOutput(\n","          (dense): Linear(in_features=3072, out_features=768, bias=True)\n","          (LayerNorm): LayerNorm((768,), eps=1e-05, elementwise_affine=True)\n","          (dropout): Dropout(p=0.1, inplace=False)\n","        )\n","      )\n","      (6): MPNetLayer(\n","        (attention): MPNetAttention(\n","          (attn): MPNetSelfAttention(\n","            (q): Linear(in_features=768, out_features=768, bias=True)\n","            (k): Linear(in_features=768, out_features=768, bias=True)\n","            (v): Linear(in_features=768, out_features=768, bias=True)\n","            (o): Linear(in_features=768, out_features=768, bias=True)\n","            (dropout): Dropout(p=0.1, inplace=False)\n","          )\n","          (LayerNorm): LayerNorm((768,), eps=1e-05, elementwise_affine=True)\n","          (dropout): Dropout(p=0.1, inplace=False)\n","        )\n","        (intermediate): MPNetIntermediate(\n","          (dense): Linear(in_features=768, out_features=3072, bias=True)\n","        )\n","        (output): MPNetOutput(\n","          (dense): Linear(in_features=3072, out_features=768, bias=True)\n","          (LayerNorm): LayerNorm((768,), eps=1e-05, elementwise_affine=True)\n","          (dropout): Dropout(p=0.1, inplace=False)\n","        )\n","      )\n","      (7): MPNetLayer(\n","        (attention): MPNetAttention(\n","          (attn): MPNetSelfAttention(\n","            (q): Linear(in_features=768, out_features=768, bias=True)\n","            (k): Linear(in_features=768, out_features=768, bias=True)\n","            (v): Linear(in_features=768, out_features=768, bias=True)\n","            (o): Linear(in_features=768, out_features=768, bias=True)\n","            (dropout): Dropout(p=0.1, inplace=False)\n","          )\n","          (LayerNorm): LayerNorm((768,), eps=1e-05, elementwise_affine=True)\n","          (dropout): Dropout(p=0.1, inplace=False)\n","        )\n","        (intermediate): MPNetIntermediate(\n","          (dense): Linear(in_features=768, out_features=3072, bias=True)\n","        )\n","        (output): MPNetOutput(\n","          (dense): Linear(in_features=3072, out_features=768, bias=True)\n","          (LayerNorm): LayerNorm((768,), eps=1e-05, elementwise_affine=True)\n","          (dropout): Dropout(p=0.1, inplace=False)\n","        )\n","      )\n","      (8): MPNetLayer(\n","        (attention): MPNetAttention(\n","          (attn): MPNetSelfAttention(\n","            (q): Linear(in_features=768, out_features=768, bias=True)\n","            (k): Linear(in_features=768, out_features=768, bias=True)\n","            (v): Linear(in_features=768, out_features=768, bias=True)\n","            (o): Linear(in_features=768, out_features=768, bias=True)\n","            (dropout): Dropout(p=0.1, inplace=False)\n","          )\n","          (LayerNorm): LayerNorm((768,), eps=1e-05, elementwise_affine=True)\n","          (dropout): Dropout(p=0.1, inplace=False)\n","        )\n","        (intermediate): MPNetIntermediate(\n","          (dense): Linear(in_features=768, out_features=3072, bias=True)\n","        )\n","        (output): MPNetOutput(\n","          (dense): Linear(in_features=3072, out_features=768, bias=True)\n","          (LayerNorm): LayerNorm((768,), eps=1e-05, elementwise_affine=True)\n","          (dropout): Dropout(p=0.1, inplace=False)\n","        )\n","      )\n","      (9): MPNetLayer(\n","        (attention): MPNetAttention(\n","          (attn): MPNetSelfAttention(\n","            (q): Linear(in_features=768, out_features=768, bias=True)\n","            (k): Linear(in_features=768, out_features=768, bias=True)\n","            (v): Linear(in_features=768, out_features=768, bias=True)\n","            (o): Linear(in_features=768, out_features=768, bias=True)\n","            (dropout): Dropout(p=0.1, inplace=False)\n","          )\n","          (LayerNorm): LayerNorm((768,), eps=1e-05, elementwise_affine=True)\n","          (dropout): Dropout(p=0.1, inplace=False)\n","        )\n","        (intermediate): MPNetIntermediate(\n","          (dense): Linear(in_features=768, out_features=3072, bias=True)\n","        )\n","        (output): MPNetOutput(\n","          (dense): Linear(in_features=3072, out_features=768, bias=True)\n","          (LayerNorm): LayerNorm((768,), eps=1e-05, elementwise_affine=True)\n","          (dropout): Dropout(p=0.1, inplace=False)\n","        )\n","      )\n","      (10): MPNetLayer(\n","        (attention): MPNetAttention(\n","          (attn): MPNetSelfAttention(\n","            (q): Linear(in_features=768, out_features=768, bias=True)\n","            (k): Linear(in_features=768, out_features=768, bias=True)\n","            (v): Linear(in_features=768, out_features=768, bias=True)\n","            (o): Linear(in_features=768, out_features=768, bias=True)\n","            (dropout): Dropout(p=0.1, inplace=False)\n","          )\n","          (LayerNorm): LayerNorm((768,), eps=1e-05, elementwise_affine=True)\n","          (dropout): Dropout(p=0.1, inplace=False)\n","        )\n","        (intermediate): MPNetIntermediate(\n","          (dense): Linear(in_features=768, out_features=3072, bias=True)\n","        )\n","        (output): MPNetOutput(\n","          (dense): Linear(in_features=3072, out_features=768, bias=True)\n","          (LayerNorm): LayerNorm((768,), eps=1e-05, elementwise_affine=True)\n","          (dropout): Dropout(p=0.1, inplace=False)\n","        )\n","      )\n","      (11): MPNetLayer(\n","        (attention): MPNetAttention(\n","          (attn): MPNetSelfAttention(\n","            (q): Linear(in_features=768, out_features=768, bias=True)\n","            (k): Linear(in_features=768, out_features=768, bias=True)\n","            (v): Linear(in_features=768, out_features=768, bias=True)\n","            (o): Linear(in_features=768, out_features=768, bias=True)\n","            (dropout): Dropout(p=0.1, inplace=False)\n","          )\n","          (LayerNorm): LayerNorm((768,), eps=1e-05, elementwise_affine=True)\n","          (dropout): Dropout(p=0.1, inplace=False)\n","        )\n","        (intermediate): MPNetIntermediate(\n","          (dense): Linear(in_features=768, out_features=3072, bias=True)\n","        )\n","        (output): MPNetOutput(\n","          (dense): Linear(in_features=3072, out_features=768, bias=True)\n","          (LayerNorm): LayerNorm((768,), eps=1e-05, elementwise_affine=True)\n","          (dropout): Dropout(p=0.1, inplace=False)\n","        )\n","      )\n","    )\n","    (relative_attention_bias): Embedding(32, 12)\n","  )\n","  (pooler): MPNetPooler(\n","    (dense): Linear(in_features=768, out_features=768, bias=True)\n","    (activation): Tanh()\n","  )\n",")"]},"metadata":{},"execution_count":18}]},{"cell_type":"code","metadata":{"id":"U6gqiS2FBvW5"},"source":["def cls_pooling(model_output):\n","    return model_output.last_hidden_state[:, 0]\n"],"execution_count":null,"outputs":[]},{"cell_type":"code","metadata":{"id":"3j6qfLo7C9KN"},"source":["def get_embeddings
…
